Model 1:

CNN(
  (conv_layer): Sequential(
    (0): Conv2d(3, 32, kernel_size=(3, 3), stride=(1, 1), padding=(1, 1))
    (1): BatchNorm2d(32, eps=1e-05, momentum=0.1, affine=True, track_running_stats=False)
    (2): Sigmoid()
    (3): Conv2d(32, 64, kernel_size=(3, 3), stride=(1, 1), padding=(1, 1))
    (4): Sigmoid()
    (5): MaxPool2d(kernel_size=2, stride=2, padding=0, dilation=1, ceil_mode=False)
    (6): Conv2d(64, 128, kernel_size=(3, 3), stride=(1, 1), padding=(1, 1))
    (7): BatchNorm2d(128, eps=1e-05, momentum=0.1, affine=True, track_running_stats=False)
    (8): Sigmoid()
    (9): Conv2d(128, 128, kernel_size=(3, 3), stride=(1, 1), padding=(1, 1))
    (10): Sigmoid()
    (11): MaxPool2d(kernel_size=2, stride=2, padding=0, dilation=1, ceil_mode=False)
    (12): Dropout2d(p=0.05, inplace=False)
    (13): Conv2d(128, 256, kernel_size=(3, 3), stride=(1, 1), padding=(1, 1))
    (14): BatchNorm2d(256, eps=1e-05, momentum=0.1, affine=True, track_running_stats=False)
    (15): Sigmoid()
    (16): Conv2d(256, 256, kernel_size=(3, 3), stride=(1, 1), padding=(1, 1))
    (17): Sigmoid()
    (18): MaxPool2d(kernel_size=2, stride=2, padding=0, dilation=1, ceil_mode=False)
  )
  (fc_layer): Sequential(
    (0): Dropout(p=0.1, inplace=False)
    (1): Linear(in_features=4096, out_features=1024, bias=True)
    (2): Sigmoid()
    (3): Linear(in_features=1024, out_features=512, bias=True)
    (4): Sigmoid()
    (5): Dropout(p=0.1, inplace=False)
    (6): Linear(in_features=512, out_features=10, bias=True)
  )
)

criterion = nn.CrossEntropyLoss()
optimizer = optim.SGD(net.parameters(), lr=0.001, momentum = m)

[1,  2000] loss: 2.360
[1,  4000] loss: 2.330
[1,  6000] loss: 2.315
[1,  8000] loss: 2.311
[1, 10000] loss: 2.308
[1, 12000] loss: 2.306
[2,  2000] loss: 2.306
[2,  4000] loss: 2.305
[2,  6000] loss: 2.304
[2,  8000] loss: 2.305
[2, 10000] loss: 2.304
[2, 12000] loss: 2.305
Training complete in 3m 42s

Accuracy of the network on the 10000 test images: 10 %
Accuracy of plane :  0 %
Accuracy of   car :  0 %
Accuracy of  bird :  0 %
Accuracy of   cat :  0 %
Accuracy of  deer :  0 %
Accuracy of   dog :  0 %
Accuracy of  frog :  0 %
Accuracy of horse : 100 %
Accuracy of  ship :  0 %
Accuracy of truck :  0 %

Model 2:
CNN(
  (conv_layer): Sequential(
    (0): Conv2d(3, 32, kernel_size=(3, 3), stride=(1, 1), padding=(1, 1))
    (1): BatchNorm2d(32, eps=1e-05, momentum=0.1, affine=True, track_running_stats=False)
    (2): ReLU()
    (3): Conv2d(32, 64, kernel_size=(3, 3), stride=(1, 1), padding=(1, 1))
    (4): ReLU()
    (5): MaxPool2d(kernel_size=2, stride=2, padding=0, dilation=1, ceil_mode=False)
    (6): Conv2d(64, 128, kernel_size=(3, 3), stride=(1, 1), padding=(1, 1))
    (7): BatchNorm2d(128, eps=1e-05, momentum=0.1, affine=True, track_running_stats=False)
    (8): ReLU()
    (9): Conv2d(128, 128, kernel_size=(3, 3), stride=(1, 1), padding=(1, 1))
    (10): ReLU()
    (11): MaxPool2d(kernel_size=2, stride=2, padding=0, dilation=1, ceil_mode=False)
    (12): Dropout2d(p=0.05, inplace=False)
    (13): Conv2d(128, 256, kernel_size=(3, 3), stride=(1, 1), padding=(1, 1))
    (14): BatchNorm2d(256, eps=1e-05, momentum=0.1, affine=True, track_running_stats=False)
    (15): ReLU()
    (16): Conv2d(256, 256, kernel_size=(3, 3), stride=(1, 1), padding=(1, 1))
    (17): ReLU()
    (18): MaxPool2d(kernel_size=2, stride=2, padding=0, dilation=1, ceil_mode=False)
  )
  (fc_layer): Sequential(
    (0): Dropout(p=0.1, inplace=False)
    (1): Linear(in_features=4096, out_features=1024, bias=True)
    (2): ReLU()
    (3): Linear(in_features=1024, out_features=512, bias=True)
    (4): ReLU()
    (5): Dropout(p=0.1, inplace=False)
    (6): Linear(in_features=512, out_features=10, bias=True)
  )
)

criterion = nn.CrossEntropyLoss()
optimizer = optim.SGD(net.parameters(), lr=0.001, momentum = m)

[1,  2000] loss: 1.848
[1,  4000] loss: 1.470
[1,  6000] loss: 1.247
[1,  8000] loss: 1.129
[1, 10000] loss: 1.040
[1, 12000] loss: 0.986
[2,  2000] loss: 0.833
[2,  4000] loss: 0.806
[2,  6000] loss: 0.775
[2,  8000] loss: 0.737
[2, 10000] loss: 0.747
[2, 12000] loss: 0.728
Training complete in 3m 47s

Accuracy of the network on the 10000 test images: 75 %

Accuracy of plane : 82 %
Accuracy of   car : 94 %
Accuracy of  bird : 68 %
Accuracy of   cat : 47 %
Accuracy of  deer : 63 %
Accuracy of   dog : 73 %
Accuracy of  frog : 81 %
Accuracy of horse : 87 %
Accuracy of  ship : 86 %
Accuracy of truck : 70 %

Model 3:

Awesome Appan

Network(
  (conv_layer): Sequential(
    (0): Conv2d(3, 32, kernel_size=(3, 3), stride=(1, 1), padding=(1, 1))
    (1): BatchNorm2d(32, eps=1e-05, momentum=0.1, affine=True, track_running_stats=True)
    (2): ReLU()
    (3): Conv2d(32, 64, kernel_size=(3, 3), stride=(1, 1), padding=(1, 1))
    (4): ReLU()
    (5): MaxPool2d(kernel_size=2, stride=2, padding=0, dilation=1, ceil_mode=False)
    (6): Dropout2d(p=0.05, inplace=False)
    (7): Conv2d(64, 128, kernel_size=(3, 3), stride=(1, 1), padding=(1, 1))
    (8): BatchNorm2d(128, eps=1e-05, momentum=0.1, affine=True, track_running_stats=True)
    (9): ReLU()
    (10): Conv2d(128, 256, kernel_size=(3, 3), stride=(1, 1), padding=(1, 1))
    (11): ReLU()
    (12): MaxPool2d(kernel_size=2, stride=2, padding=0, dilation=1, ceil_mode=False)
    (13): Conv2d(256, 256, kernel_size=(3, 3), stride=(1, 1), padding=(1, 1))
    (14): ReLU()
    (15): MaxPool2d(kernel_size=2, stride=2, padding=0, dilation=1, ceil_mode=False)
  )
  (fc_layer): Sequential(
    (0): Dropout(p=0.1, inplace=False)
    (1): Linear(in_features=4096, out_features=1024, bias=True)
    (2): ReLU()
    (3): Linear(in_features=1024, out_features=512, bias=True)
    (4): ReLU()
    (5): Dropout(p=0.1, inplace=False)
    (6): Linear(in_features=512, out_features=10, bias=True)
  )
)

criterion = nn.CrossEntropyLoss()
optimizer = optim.SGD(net.parameters(), lr=0.001, momentum = m)

[1,  2000] loss: 1.955
[1,  4000] loss: 1.586
[1,  6000] loss: 1.380
[1,  8000] loss: 1.232
[1, 10000] loss: 1.126
[1, 12000] loss: 1.024
[2,  2000] loss: 0.920
[2,  4000] loss: 0.870
[2,  6000] loss: 0.845
[2,  8000] loss: 0.808
[2, 10000] loss: 0.770
[2, 12000] loss: 0.745
Training complete in 4m 51s

Accuracy of the network on the 10000 test images: 76 %

Accuracy of plane : 80 %
Accuracy of   car : 85 %
Accuracy of  bird : 55 %
Accuracy of   cat : 67 %
Accuracy of  deer : 77 %
Accuracy of   dog : 56 %
Accuracy of  frog : 77 %
Accuracy of horse : 82 %
Accuracy of  ship : 91 %
Accuracy of truck : 88 %

Model 4:

Network(
  (conv_layer): Sequential(
    (0): Conv2d(3, 32, kernel_size=(3, 3), stride=(1, 1), padding=(1, 1))
    (1): BatchNorm2d(32, eps=1e-05, momentum=0.1, affine=True, track_running_stats=True)
    (2): Sigmoid()
    (3): Conv2d(32, 64, kernel_size=(3, 3), stride=(1, 1), padding=(1, 1))
    (4): Sigmoid()
    (5): MaxPool2d(kernel_size=2, stride=2, padding=0, dilation=1, ceil_mode=False)
    (6): Dropout2d(p=0.05, inplace=False)
    (7): Conv2d(64, 128, kernel_size=(3, 3), stride=(1, 1), padding=(1, 1))
    (8): BatchNorm2d(128, eps=1e-05, momentum=0.1, affine=True, track_running_stats=True)
    (9): Sigmoid()
    (10): Conv2d(128, 256, kernel_size=(3, 3), stride=(1, 1), padding=(1, 1))
    (11): Sigmoid()
    (12): MaxPool2d(kernel_size=2, stride=2, padding=0, dilation=1, ceil_mode=False)
    (13): Conv2d(256, 256, kernel_size=(3, 3), stride=(1, 1), padding=(1, 1))
    (14): Sigmoid()
    (15): MaxPool2d(kernel_size=2, stride=2, padding=0, dilation=1, ceil_mode=False)
  )
  (fc_layer): Sequential(
    (0): Dropout(p=0.1, inplace=False)
    (1): Linear(in_features=4096, out_features=1024, bias=True)
    (2): Sigmoid()
    (3): Linear(in_features=1024, out_features=512, bias=True)
    (4): Sigmoid()
    (5): Dropout(p=0.1, inplace=False)
    (6): Linear(in_features=512, out_features=10, bias=True)
  )
)

criterion = nn.CrossEntropyLoss()
optimizer = optim.SGD(net.parameters(), lr=0.001, momentum = m)

[1,  2000] loss: 2.362
[1,  4000] loss: 2.329
[1,  6000] loss: 2.315
[1,  8000] loss: 2.312
[1, 10000] loss: 2.307
[1, 12000] loss: 2.308
[2,  2000] loss: 2.306
[2,  4000] loss: 2.305
[2,  6000] loss: 2.305
[2,  8000] loss: 2.304
[2, 10000] loss: 2.305
[2, 12000] loss: 2.304
Training complete in 1m 47s

Accuracy of the network on the 10000 test images: 10 %

Accuracy of plane :  0 %
Accuracy of   car :  0 %
Accuracy of  bird : 100 %
Accuracy of   cat :  0 %
Accuracy of  deer :  0 %
Accuracy of   dog :  0 %
Accuracy of  frog :  0 %
Accuracy of horse :  0 %
Accuracy of  ship :  0 %
Accuracy of truck :  0 %

Model 5:

Network(
  (conv_layer): Sequential(
    (0): Conv2d(3, 32, kernel_size=(3, 3), stride=(1, 1), padding=(1, 1))
    (1): BatchNorm2d(32, eps=1e-05, momentum=0.1, affine=True, track_running_stats=True)
    (2): Tanh()
    (3): Conv2d(32, 64, kernel_size=(3, 3), stride=(1, 1), padding=(1, 1))
    (4): Tanh()
    (5): MaxPool2d(kernel_size=2, stride=2, padding=0, dilation=1, ceil_mode=False)
    (6): Dropout2d(p=0.05, inplace=False)
    (7): Conv2d(64, 128, kernel_size=(3, 3), stride=(1, 1), padding=(1, 1))
    (8): BatchNorm2d(128, eps=1e-05, momentum=0.1, affine=True, track_running_stats=True)
    (9): Tanh()
    (10): Conv2d(128, 256, kernel_size=(3, 3), stride=(1, 1), padding=(1, 1))
    (11): Tanh()
    (12): MaxPool2d(kernel_size=2, stride=2, padding=0, dilation=1, ceil_mode=False)
    (13): Conv2d(256, 256, kernel_size=(3, 3), stride=(1, 1), padding=(1, 1))
    (14): Tanh()
    (15): MaxPool2d(kernel_size=2, stride=2, padding=0, dilation=1, ceil_mode=False)
  )
  (fc_layer): Sequential(
    (0): Dropout(p=0.1, inplace=False)
    (1): Linear(in_features=4096, out_features=1024, bias=True)
    (2): Tanh()
    (3): Linear(in_features=1024, out_features=512, bias=True)
    (4): Tanh()
    (5): Dropout(p=0.1, inplace=False)
    (6): Linear(in_features=512, out_features=10, bias=True)
  )
)

criterion = nn.CrossEntropyLoss()
optimizer = optim.SGD(net.parameters(), lr=0.001, momentum = m)

[1,  2000] loss: 1.824
[1,  4000] loss: 1.496
[1,  6000] loss: 1.304
[1,  8000] loss: 1.196
[1, 10000] loss: 1.130
[1, 12000] loss: 1.045
[2,  2000] loss: 0.947
[2,  4000] loss: 0.914
[2,  6000] loss: 0.909
[2,  8000] loss: 0.909
[2, 10000] loss: 0.862
[2, 12000] loss: 0.836
Training complete in 1m 50s

Accuracy of the network on the 10000 test images: 72 %

Accuracy of plane : 78 %
Accuracy of   car : 89 %
Accuracy of  bird : 69 %
Accuracy of   cat : 33 %
Accuracy of  deer : 70 %
Accuracy of   dog : 68 %
Accuracy of  frog : 82 %
Accuracy of horse : 72 %
Accuracy of  ship : 82 %
Accuracy of truck : 77 %

Model 6:

Network(
  (conv_layer): Sequential(
    (0): Conv2d(3, 32, kernel_size=(3, 3), stride=(1, 1), padding=(1, 1))
    (1): BatchNorm2d(32, eps=1e-05, momentum=0.1, affine=True, track_running_stats=True)
    (2): ReLU()
    (3): Conv2d(32, 64, kernel_size=(3, 3), stride=(1, 1), padding=(1, 1))
    (4): ReLU()
    (5): MaxPool2d(kernel_size=2, stride=2, padding=0, dilation=1, ceil_mode=False)
    (6): Dropout2d(p=0.05, inplace=False)
    (7): Conv2d(64, 128, kernel_size=(3, 3), stride=(1, 1), padding=(1, 1))
    (8): BatchNorm2d(128, eps=1e-05, momentum=0.1, affine=True, track_running_stats=True)
    (9): ReLU()
    (10): Conv2d(128, 256, kernel_size=(3, 3), stride=(1, 1), padding=(1, 1))
    (11): ReLU()
    (12): MaxPool2d(kernel_size=2, stride=2, padding=0, dilation=1, ceil_mode=False)
    (13): Conv2d(256, 256, kernel_size=(3, 3), stride=(1, 1), padding=(1, 1))
    (14): ReLU()
    (15): MaxPool2d(kernel_size=2, stride=2, padding=0, dilation=1, ceil_mode=False)
  )
  (fc_layer): Sequential(
    (0): Dropout(p=0.1, inplace=False)
    (1): Linear(in_features=4096, out_features=1024, bias=True)
    (2): ReLU()
    (3): Linear(in_features=1024, out_features=512, bias=True)
    (4): ReLU()
    (5): Dropout(p=0.1, inplace=False)
    (6): Linear(in_features=512, out_features=10, bias=True)
  )
)

criterion = nn.CrossEntropyLoss()
optimizer = optim.Adam(net.parameters(), lr=0.001)

[1,  2000] loss: 2.067
[1,  4000] loss: 1.775
[1,  6000] loss: 1.685
[1,  8000] loss: 1.634
[1, 10000] loss: 1.611
[1, 12000] loss: 1.547
[2,  2000] loss: 1.474
[2,  4000] loss: 1.459
[2,  6000] loss: 1.429
[2,  8000] loss: 1.434
[2, 10000] loss: 1.416
[2, 12000] loss: 1.382
…
