…
[1,  4000] loss: 1.871
[1,  6000] loss: 1.670
[1,  8000] loss: 1.582
[1, 10000] loss: 1.508
[1, 12000] loss: 1.464
[2,  2000] loss: 1.390
[2,  4000] loss: 1.390
[2,  6000] loss: 1.327
[2,  8000] loss: 1.331
[2, 10000] loss: 1.293
[2, 12000] loss: 1.292
Finished Training

Accuracy of the network on the 10000 test images: 55 %

Accuracy of plane : 62 %
Accuracy of   car : 56 %
Accuracy of  bird : 45 %
Accuracy of   cat : 33 %
Accuracy of  deer : 44 %
Accuracy of   dog : 51 %
Accuracy of  frog : 68 %
Accuracy of horse : 52 %
Accuracy of  ship : 61 %
Accuracy of truck : 76 %

Model 2 :

Net(
  (conv1): Conv2d(3, 6, kernel_size=(5, 5), stride=(1, 1))
  (pool): MaxPool2d(kernel_size=2, stride=2, padding=0, dilation=1, ceil_mode=False)
  (conv2): Conv2d(6, 16, kernel_size=(5, 5), stride=(1, 1))
  (fc1): Linear(in_features=400, out_features=120, bias=True)
  (fc2): Linear(in_features=120, out_features=84, bias=True)
  (fc3): Linear(in_features=84, out_features=10, bias=True)
  (dropout): Dropout(p=0.5, inplace=False)
)

optimizer = SGD(lr=0.001, momentum=0.9)

[1,  2000] loss: 2.245
[1,  4000] loss: 2.017
[1,  6000] loss: 1.897
[1,  8000] loss: 1.810
[1, 10000] loss: 1.766
[1, 12000] loss: 1.693
[2,  2000] loss: 1.613
[2,  4000] loss: 1.632
[2,  6000] loss: 1.593
[2,  8000] loss: 1.583
[2, 10000] loss: 1.567
[2, 12000] loss: 1.575
Finished Training


Accuracy of plane : 40 %
Accuracy of   car : 50 %
Accuracy of  bird : 41 %
Accuracy of   cat : 11 %
Accuracy of  deer : 33 %
Accuracy of   dog : 67 %
Accuracy of  frog : 65 %
Accuracy of horse : 36 %
Accuracy of  ship : 70 %
Accuracy of truck : 47 %

Model 3 : 

Net(
  (conv1): Conv2d(3, 6, kernel_size=(5, 5), stride=(1, 1))
  (pool): MaxPool2d(kernel_size=2, stride=2, padding=0, dilation=1, ceil_mode=False)
  (conv2): Conv2d(6, 16, kernel_size=(5, 5), stride=(1, 1))
  (fc1): Linear(in_features=400, out_features=120, bias=True)
  (fc2): Linear(in_features=120, out_features=84, bias=True)
  (fc3): Linear(in_features=84, out_features=10, bias=True)
  (dropout): Dropout(p=0.2, inplace=False)
)

optimizer = SGD(lr=0.001, momentum=0.9)

Accuracy of the network on the 10000 test images: 51 %

[1,  2000] loss: 2.223
[1,  4000] loss: 1.906
[1,  6000] loss: 1.740
[1,  8000] loss: 1.655
[1, 10000] loss: 1.611
[1, 12000] loss: 1.542
[2,  2000] loss: 1.487
[2,  4000] loss: 1.472
[2,  6000] loss: 1.434
[2,  8000] loss: 1.413
[2, 10000] loss: 1.376
[2, 12000] loss: 1.375
Finished Training

Accuracy of plane : 73 %
Accuracy of   car : 60 %
Accuracy of  bird : 31 %
Accuracy of   cat : 23 %
Accuracy of  deer : 29 %
Accuracy of   dog : 73 %
Accuracy of  frog : 62 %
Accuracy of horse : 58 %
Accuracy of  ship : 39 %
Accuracy of truck : 65 %

Model 4 : 25 epochs + Dropout (0.1)

Net(
  (conv1): Conv2d(3, 6, kernel_size=(5, 5), stride=(1, 1))
  (pool): MaxPool2d(kernel_size=2, stride=2, padding=0, dilation=1, ceil_mode=False)
  (conv2): Conv2d(6, 16, kernel_size=(5, 5), stride=(1, 1))
  (fc1): Linear(in_features=400, out_features=120, bias=True)
  (fc2): Linear(in_features=120, out_features=84, bias=True)
  (fc3): Linear(in_features=84, out_features=10, bias=True)
  (dropout): Dropout(p=0.1, inplace=False)
)

[1,  2000] loss: 2.188
[1,  4000] loss: 1.890
[1,  6000] loss: 1.728
[1,  8000] loss: 1.648
[1, 10000] loss: 1.593
[1, 12000] loss: 1.549
[2,  2000] loss: 1.491
[2,  4000] loss: 1.471
[2,  6000] loss: 1.427
[2,  8000] loss: 1.430
[2, 10000] loss: 1.387
[2, 12000] loss: 1.367
[3,  2000] loss: 1.307
[3,  4000] loss: 1.299
…
[24,  8000] loss: 0.848
[24, 10000] loss: 0.872
[24, 12000] loss: 0.865
[25,  2000] loss: 0.818
[25,  4000] loss: 0.847
[25,  6000] loss: 0.859
[25,  8000] loss: 0.809
[25, 10000] loss: 0.885
[25, 12000] loss: 0.866
Finished Training

Accuracy of the network on the 10000 test images: 64 %

Accuracy of plane : 60 %
Accuracy of   car : 76 %
Accuracy of  bird : 45 %
Accuracy of   cat : 49 %
Accuracy of  deer : 70 %
Accuracy of   dog : 44 %
Accuracy of  frog : 72 %
Accuracy of horse : 63 %
Accuracy of  ship : 83 %
Accuracy of truck : 77 %

Model 5:awesome NN 

CNN(
  (conv_layer): Sequential(
    (0): Conv2d(3, 32, kernel_size=(3, 3), stride=(1, 1), padding=(1, 1))
    (1): BatchNorm2d(32, eps=1e-05, momentum=0.1, affine=True, track_running_stats=True)
    (2): ReLU(inplace=True)
    (3): Conv2d(32, 64, kernel_size=(3, 3), stride=(1, 1), padding=(1, 1))
    (4): ReLU(inplace=True)
    (5): MaxPool2d(kernel_size=2, stride=2, padding=0, dilation=1, ceil_mode=False)
    (6): Conv2d(64, 128, kernel_size=(3, 3), stride=(1, 1), padding=(1, 1))
    (7): BatchNorm2d(128, eps=1e-05, momentum=0.1, affine=True, track_running_stats=True)
    (8): ReLU(inplace=True)
    (9): Conv2d(128, 128, kernel_size=(3, 3), stride=(1, 1), padding=(1, 1))
    (10): ReLU(inplace=True)
    (11): MaxPool2d(kernel_size=2, stride=2, padding=0, dilation=1, ceil_mode=False)
    (12): Dropout2d(p=0.05, inplace=False)
    (13): Conv2d(128, 256, kernel_size=(3, 3), stride=(1, 1), padding=(1, 1))
    (14): BatchNorm2d(256, eps=1e-05, momentum=0.1, affine=True, track_running_stats=True)
    (15): ReLU(inplace=True)
    (16): Conv2d(256, 256, kernel_size=(3, 3), stride=(1, 1), padding=(1, 1))
    (17): ReLU(inplace=True)
    (18): MaxPool2d(kernel_size=2, stride=2, padding=0, dilation=1, ceil_mode=False)
  )
  (fc_layer): Sequential(
    (0): Dropout(p=0.1, inplace=False)
    (1): Linear(in_features=4096, out_features=1024, bias=True)
    (2): ReLU(inplace=True)
    (3): Linear(in_features=1024, out_features=512, bias=True)
    (4): ReLU(inplace=True)
    (5): Dropout(p=0.1, inplace=False)
    (6): Linear(in_features=512, out_features=10, bias=True)
  )
)

[1,  2000] loss: 1.883
[1,  4000] loss: 1.524
[1,  6000] loss: 1.285
[1,  8000] loss: 1.149
[1, 10000] loss: 1.048
[1, 12000] loss: 0.968
[2,  2000] loss: 0.873
[2,  4000] loss: 0.819
[2,  6000] loss: 0.793
[2,  8000] loss: 0.764
[2, 10000] loss: 0.765
[2, 12000] loss: 0.724
Finished Training

Accuracy of the network on the 10000 test images: 75 %
…
